CS540/hw7/outputs/model_best.pth.tar (torch, 608327 bytes, 10 tensors)

conv_layer1.weight f4 [6, 3, 5, 5]
000000 e3 37 c0 bd d1 6b c9 bd d6 26 b1 be 98 5d a9 be
       -0.093856595 -0.098350175 -0.34599942 -0.3307922
000010 3a 02 40 be 3c 20 e5 bc 8c 73 0e be fd 4c b3 bd
       -0.1875085 -0.027969472 -0.13911265 -0.08754919
000020 09 36 49 be eb 9e cc bd 82 36 d7 bd 9c 3f 31 be
       -0.19649519 -0.09991249 -0.105084434 -0.17309421
000030 0f 71 54 be f2 45 1a be ba 00 10 be ba 17 b9 bd
       -0.20746253 -0.15065745 -0.14062777 -0.090377286
000040 0c 70 b9 bd b3 25 41 3d 16 5f 8c bd 79 d5 a1 bd
       -0.09054574 0.047155093 -0.06854074 -0.07902045
000050 23 c6 23 bd bb 59 f6 3a 43 2b 03 bd c0 50 e2 3d
       -0.03998388 0.0018795052 -0.03202368 0.11050558
000060 9b 6a 23 bd 3c 8e 87 3d 5b 49 e7 3d 13 84 27 be
       -0.03989659 0.06618926 0.11293288 -0.16358976
000070 34 2a 01 be f1 a2 c8 bb 81 77 06 bc ea 54 a8 3d
       -0.12613755 -0.0061229398 -0.008207203 0.08219321
000080 57 90 de bd d4 d6 bd bd 78 3d be bd 9b 7e 07 be
       -0.108673744 -0.09269491 -0.09289068 -0.1323189
000090 ab 13 1e be b3 06 af 3d 89 f2 79 3d 4e 48 bb 3c
       -0.1543719 0.085462 0.061022315 0.022861626
0000a0 d4 44 b4 bd 0d 79 3c be 29 08 b2 3c e7 c8 90 bd
       -0.088021904 -0.18405552 0.021732407 -0.07069569
0000b0 43 5a c8 bd 17 b0 30 be 31 7a 43 bd cf 9d 15 3d
       -0.09782841 -0.17254673 -0.047723953 0.03652745
0000c0 7d 02 55 bd 07 2a 5e bd b6 da a7 3e e3 88 a5 3e
       -0.052004326 -0.0542393 0.3278405 0.32331
0000d0 b2 47 54 3e aa 9e 37 3e 91 f2 9a 3e 90 46 16 3e
       0.20730475 0.1793162 0.30263188 0.14675355
0000e0 d9 8c 3a 3e 6e 1a 82 3d d7 24 7d 3d 07 f0 c2 3d
       0.18217792 0.06352697 0.06180271 0.09518438
0000f0 88 0f 3d 3e 14 e5 e8 3d 32 0e 86 3d f1 b4 39 3e
       0.18462956 0.11371818 0.06545676 0.1813543
000100 15 bc 26 3e 95 ca 22 3d 95 65 a6 3c 59 63 1d 3e
       0.16282685 0.03974398 0.02031211 0.1536993
000110 9e 4e 62 3e 53 84 5c 3e fe 31 e6 bc 69 36 33 bb
       0.22100303 0.21534853 -0.02810001 -0.0027345663
000120 9f 70 21 3e 8d 65 68 3e e0 09 46 3e a0 f9 95 3d
       0.15765618 0.22694989 0.19339705 0.07323003
000130 a5 99 41 3e 6a 8d dd bd c3 1b 92 3d 00 e5 00 3e
       0.18906267 -0.10817988 0.071342014 0.12587357
000140 2f 35 92 be 34 84 82 3e 70 b8 60 3d 06 be 06 be
       -0.285562 0.25491488 0.054863393 -0.13158426
000150 ba 27 03 3e b7 e0 9e be 4c a8 71 3d 4f 4b 10 be
       0.12808123 -0.3103082 0.05899839 -0.14091228
000160 bf 8b 4d bd f0 1a 57 bd 23 f4 75 be 1e 2d 16 3e
       -0.0501821 -0.052515924 -0.24018912 0.14665648
000170 fa a1 5d 3d 2a 33 98 bc af 81 e8 bd 05 28 95 be
       0.05410955 -0.018579084 -0.1135286 -0.29132095
000180 78 d0 2d 3e 2b 9f d1 3d a5 87 29 bd 1d a9 b3 3c
       0.16974056 0.10235437 -0.041389126 0.021931225
000190 0e 57 2a 3e f5 47 8a 3e b6 11 21 be 00 c6 04 be
       0.16634771 0.27008024 -0.15729412 -0.12966156
0001a0 59 c4 86 bd c7 61 dc bc 8b 46 38 3e e4 8c 08 be
       -0.06580419 -0.026902093 0.1799566 -0.13334996
0001b0 9f cd b2 bd d7 c9 68 3d 30 58 c7 bd fa 7a d1 3e
       -0.08730625 0.056833114 -0.09733617 0.40914136
0001c0 1f 90 8c ba c4 e3 9c 3d 04 be de 3d e7 eb 33 be
       -0.0010724104 0.0766063 0.10876086 -0.17570458
0001d0 84 f5 96 3e 8b 21 c3 3d 3a 09 8b bd 58 8a 9f bd
       0.2948419 0.09527882 -0.06788869 -0.07790059
0001e0 42 cf b7 bd c7 82 4a 3e fb 16 20 bc cc fc 4b bd
       -0.08975078 0.1977645 -0.009771104 -0.049801633
0001f0 8e 3f 77 be f1 ad 54 bd 8f 9f 91 3d 73 37 92 be
       -0.24145338 -0.051923696 0.071105115 -0.2855793
000200 ae a1 95 be 75 3e 4f be 36 a6 b5 bc ef 30 87 3e
       -0.29224914 -0.20238669 -0.022173982 0.2640452
000210 60 5d 3d be ed e4 3d be 1b 8b 80 3c 42 92 1f 3d
       -0.18492651 -0.1854436 0.01569133 0.03895784
000220 ab 9d cc 3e 6e 61 9a 3d 74 22 0e bd 20 38 3c 3d
       0.3996404 0.075381145 -0.034700826 0.045951962
000230 f1 c1 15 3e f2 b5 f4 3e 04 eb 74 3e 69 49 e5 bd
       0.14624764 0.47795063 0.23917776 -0.111956425
000240 59 8c 89 be 46 5c d9 bd 0f e7 a4 3e 48 5c 6a 3d
       -0.2686489 -0.10613303 0.32207534 0.057216913
000250 ff c3 50 be 13 4f 95 be 32 26 23 be 22 1f 34 be
       -0.20387267 -0.2916189 -0.15932539 -0.17590001
000260 45 58 d4 bd d1 31 6a 3d 0d 92 8d bd 96 18 2d be
       -0.103683986 0.057176415 -0.069126226 -0.1690391
000270 97 5d 82 3c 5c a1 f8 bd 3c 59 1a bd f2 81 e6 bd
       0.015913768 -0.12140152 -0.037682757 -0.11255254
000280 76 57 6b bd 14 90 8e bd a8 41 2f be 78 da 0c be
       -0.057456456 -0.069610745 -0.1711489 -0.13755214
000290 42 79 45 bc 50 45 13 bd 7a c8 ca bd de a3 fa ba
       -0.012052836 -0.035954773 -0.09901519 -0.0019122323
0002a0 e1 5f c8 bd 17 17 dc bc af 8b 41 3d 22 a9 0b bd
       -0.097839125 -0.026866479 0.047252353 -0.034096844
0002b0 28 11 2a 3e b7 56 94 3d c9 4d 0a be b5 9a 30 3e
       0.16608107 0.07243102 -0.13506235 0.17246516
0002c0 29 a0 80 3d ae d1 1a 3d bd 58 8b 3e d0 9e 55 bc
       0.06280548 0.037797622 0.2721614 -0.013038352
0002d0 0f cb 99 3d 82 ce 31 3d 12 cc 25 3e 58 f2 06 3e
       0.075094335 0.04340983 0.16191128 0.13178384
0002e0 97 a6 00 3e e5 e8 02 3e a8 3c 40 3d d5 5d 9f 3c
       0.12563549 0.12784155 0.046932846 0.019453922
0002f0 c8 cf e6 bc f9 12 49 3e 55 ca 21 3e 26 8e 04 3e
       -0.02817525 0.19636144 0.1579984 0.1294485
000300 52 c0 e4 bc ea 81 d8 3d 66 99 d2 3c 02 22 ee bc
       -0.027923737 0.10571654 0.025707912 -0.02906895
000310 93 79 19 3c 96 bb 2c 3e 2b 93 1d 3d f5 f8 97 3d
       0.009367364 0.16868433 0.03847043 0.07420532
000320 f0 05 6f bd c1 fd 0c bc d9 46 07 be 50 c5 23 bc
       -0.05835527 -0.0086054215 -0.1321062 -0.009995773
000330 8c c2 be bd 53 7a 13 bd dc 44 19 be b1 d1 93 3c
       -0.093144506 -0.03600533 -0.14967674 0.018044325
000340 8c df 5f bb 36 b3 43 bd 7d ae b5 bd 3a 6c fc bd
       -0.0034160344 -0.04777833 -0.088711716 -0.1232533
000350 17 49 ee bd ed 0b 04 be 06 af a2 bc 03 f4 6d bd
       -0.116350345 -0.12895174 -0.019858848 -0.058094036
000360 a3 83 2e be 9c 7f 0a be 83 f1 5b 3d 62 2e 09 be
       -0.17042403 -0.13525242 0.05369712 -0.133966
000370 9b bf a2 bd c3 2f d5 3d 34 84 bd 3d 5d 39 2b 3c
       -0.07946702 0.104095004 0.09253731 0.010450688
000380 6a 31 18 be 9d 82 df 3d f9 be 27 bd 16 05 4c bc
       -0.148626 0.109135844 -0.04095361 -0.012452384
000390 51 81 24 bd f6 33 bc bc 37 53 f2 3a 32 ab d7 3d
       -0.04016239 -0.022973996 0.0018487935 0.105307
0003a0 93 2d f7 3c bc b9 03 3e 3f 92 d9 3d ee 3a f1 bd
       0.030173099 0.12863821 0.10623597 -0.11778818
0003b0 a8 18 1d 3d 09 f0 ad bd b6 a6 97 bc 40 04 bb 3d
       0.038353592 -0.08493049 -0.018512111 0.0913167
0003c0 a6 92 cc bc 2d 54 6f 3d 50 8c 7b bd bc 1f be 3c
       -0.024972271 0.058429886 -0.06141311 0.023208492
0003d0 4b 92 e5 3d 16 c2 38 be a5 80 49 3d 9b af 14 be
       0.11209544 -0.18042788 0.04919495 -0.14520113
0003e0 ae bc 3a bc 75 78 b5 bc cc d4 d7 bd 39 36 34 bd
       -0.011397524 -0.022152165 -0.10538635 -0.043997023
0003f0 2e 67 e2 3c dd d6 eb bd c4 37 1e be a8 85 0e be
       0.02763709 -0.11515591 -0.1545096 -0.13918173

conv_layer1.bias f4 [6]
000000 a9 8d 87 3d 0c 87 46 be bd 89 7d 3f 90 3c 59 be
       0.066188164 -0.19387454 0.99038297 -0.21214509
000010 d9 b5 a7 3e c6 02 9f 3e
       0.32755926 0.31056803

conv_layer2.weight f4 [16, 6, 5, 5]
000000 52 e2 b1 bc e5 19 d7 3c 6c 79 aa bd 1a 2a 3c bd
       -0.021714363 0.026257465 -0.08323941 -0.04593859
000010 4f f7 f5 bd 1f 13 3e bd b0 73 af 3c 1f 85 5d bd
       -0.12010061 -0.046404954 0.021417469 -0.054082032
000020 f7 11 b2 3c e4 67 b8 3c e5 39 8a bc ad 17 4a bd
       0.021737082 0.022510476 -0.01687331 -0.049338985
000030 6f c6 4e bd 00 31 eb bc 08 a3 7f 3c 76 13 8a 3d
       -0.05048221 -0.028709888 0.0156028345 0.06741993
000040 e0 af 47 3d a4 b2 ed 3a 3e 75 81 3c d4 29 bb bd
       0.04875171 0.0018134904 0.015802976 -0.091388375
000050 2a e8 6b bd ae 33 25 3d 99 c3 37 bd 13 f8 e1 3c
       -0.057594456 0.04033249 -0.04486427 0.027584111
000060 ec 51 5f bd 02 a7 02 bc 74 e9 41 bd 0c 37 02 3d
       -0.054521486 -0.007974388 -0.04734178 0.031790778
000070 e6 e5 3e bc 95 0c 62 3b 52 f6 8c 3d d9 8c 77 3d
       -0.011651492 0.0034492363 0.06882919 0.060437057
000080 cf 80 8b 3b d4 62 2e bd 66 a4 90 bd a2 fc 9e 3c
       0.0042572985 -0.04257472 -0.070626065 0.019407574
000090 99 00 d5 3c 2a 99 6b bd 03 29 ba 3c 17 72 44 bd
       0.026001262 -0.057519116 0.022724634 -0.047960367
0000a0 14 94 89 bd 63 6a 77 bd 4b 3c 1e 3d 24 eb 66 3b
       -0.06717697 -0.060404193 0.03863172 0.003523537
0000b0 54 fe fc bd 20 e9 fd 3c 1c 78 b4 3c 61 ea 9d ba
       -0.12353197 0.030994952 0.022029929 -0.0012048
0000c0 d5 bd 72 bc 4a 5e d2 bd e0 44 37 3d 29 f7 a0 3d
       -0.014815767 -0.102718905 0.04474342 0.07859642
0000d0 71 52 ab 3c ec b2 6d 3d c4 a3 22 3c 53 e1 bb 3d
       0.020913335 0.05803196 0.00992674 0.091738366
0000e0 c3 5b 34 3d 58 33 2d 3d 73 ed 9d 3d 21 72 a3 3d
       0.044032823 0.042285293 0.077113055 0.07980753
0000f0 9e 24 cd 39 d2 03 9f 3d ec 5f 00 3e 7a 8d 67 3d
       0.0003912793 0.077644005 0.12536591 0.056531407
000100 46 a5 8f 3d d0 78 0e bb b3 06 a1 3d 9b 90 35 3b
       0.07013945 -0.002173949 0.07862606 0.00277046
000110 fb f3 44 3c 61 03 41 bc d3 62 6f 3d 1e 5a 1e bc
       0.01202106 -0.011780591 0.058443855 -0.00966504
000120 82 86 9f 3c a2 26 cd bc 39 83 92 3d f7 b6 a6 3d
       0.019473318 -0.025042836 0.07153935 0.081403665
000130 9a 53 f3 bc e6 12 12 bd 1b 5d 3e bd 89 c6 39 bc
       -0.02970295 -0.035662554 -0.04647551 -0.011338838
000140 e8 b6 84 38 45 38 ae bb 47 d3 49 3c 9b f2 2d 3d
       6.3283194e-05 -0.0053167664 0.012318439 0.042467695
000150 4b ce 50 bd e0 39 e3 3c 17 0f 5e 3b 6b 25 bc bc
       -0.050977986 0.027737558 0.0033883506 -0.022967061
000160 20 f2 39 3c 1e 67 12 3d 51 77 82 bd 34 ae 3a bc
       0.011349231 0.03574287 -0.06370414 -0.011394072
000170 19 6a 84 bd e9 c4 ca 3c 0c bd 20 be ee 6d ed bd
       -0.06465549 0.024752097 -0.15697116 -0.11593233
000180 8e 40 b3 3c 02 be f8 bd 71 43 9a bd 67 ff f5 bd
       0.021881368 -0.12145616 -0.07532395 -0.12011605
000190 1d 30 16 3d 1a a7 82 3c 10 28 b7 3d 05 23 3c 3d
       0.03666698 0.01594882 0.08943188 0.045931835
0001a0 ba 04 41 bb ab ba fb bb a3 4d 9e bc a5 27 35 3d
       -0.002945228 -0.0076821647 -0.01932413 0.04422726
0001b0 88 ae 0f bd f5 ea 09 3e a0 3f cb 3c af ac 30 3a
       -0.035078555 0.13468535 0.024810612 0.0006739599
0001c0 43 6a 88 3d ff f2 88 3d dc d8 10 3e f9 49 fc 3d
       0.06660893 0.06686973 0.14145225 0.12318797
0001d0 69 e4 89 3c 03 3d 90 bc 46 c6 5c 3d 97 ed 31 3e
       0.016832547 -0.017607218 0.053900026 0.1737579
0001e0 6a 67 f2 3d a3 b9 17 3d c6 7e fe 3d 92 cd 3b 3e
       0.11836131 0.03704227 0.12426524 0.18340138
0001f0 b0 bd 07 3e 0f 3d 42 bc 94 70 9d bc ae 22 5e 3d
       0.13255954 -0.011855378 -0.01921872 0.054232292
000200 cc 8b 3a 3c 31 b1 c7 bb 98 7a 55 3d c9 db 86 3d
       0.011385869 -0.006094121 0.052118868 0.065848894
000210 65 4d 8d 3d 90 6c 6d 3d 2e cc 35 3b 48 70 82 bc
       0.068995275 0.05796486 0.0027740109 -0.01592268
000220 fd 3b fa bc f0 2e af 3d 13 ab 4d 3d e1 bf 80 3d
       -0.030546183 0.085538745 0.050211977 0.06286598
000230 89 bf ac bc ae 20 a5 3d e1 d5 5c 3d 57 b8 7c 3d
       -0.021087425 0.08062874 0.05391491 0.061699238
000240 96 fb 27 bd 6f 8d ab 3c 7d fa 4c bd e9 89 85 3d
       -0.041011415 0.020941464 -0.05004357 0.06520445
000250 8a cf c8 bc 13 c5 16 bc c6 dd 03 3e c1 cd 4e 3d
       -0.024513025 -0.00920226 0.12877569 0.05048919
000260 ca 72 4e 3d 54 d3 a1 3d 74 41 ad 3d 1f 7c 49 bd
       0.05040244 0.07901636 0.0845975 -0.049190637
000270 d5 13 cc 3d 42 75 b4 bb 11 0a 8e 3d 60 34 d0 3d
       0.0996472 -0.0055071423 0.06935514 0.1016624
000280 bb 09 42 3c ee 66 fb bb 72 c1 66 3d aa 93 4c bb
       0.01184314 -0.0076721823 0.056336828 -0.0031215944
000290 31 2c 81 bd e3 d3 61 3c 57 ec 1c bd be 00 0a be
       -0.06307257 0.013783428 -0.03831133 -0.13476846
0002a0 4a 32 aa bd 0c e2 01 be 08 1a 82 bc fe 79 b8 bd
       -0.08310373 -0.12683886 -0.015881553 -0.09007643
0002b0 ee 82 17 be 4c 85 a4 bd 1b b7 15 bd df a3 dd 3c
       -0.1479604 -0.08033237 -0.036551576 0.027055679
0002c0 c1 40 12 3c dd 49 0e 3d 60 8e 41 3d ae 96 ec bc
       0.008926571 0.03473841 0.04725492 -0.028880443
0002d0 ad 63 b3 bc 25 96 d2 bd 2f 95 cf bc c0 ea 80 3d
       -0.021898115 -0.10282544 -0.025339691 0.06294775
0002e0 58 35 58 bd 3f 97 b8 bb 14 b2 12 bd ab 07 9f 3c
       -0.052785248 -0.0056332643 -0.03581436 0.019412836
0002f0 69 44 85 bd a5 96 7d 3d 91 a2 92 bd 50 da 79 3b
       -0.06507189 0.061911244 -0.07159913 0.003812451
000300 0d 68 75 bd 2b 88 19 bd 73 2e 10 3c 76 29 88 bd
       -0.059913684 -0.037483376 0.008800137 -0.06648533
000310 ad ac 92 bc b7 88 84 bd 57 71 c5 bd a6 52 ba bd
       -0.017904604 -0.06471389 -0.096407585 -0.09097795
000320 b8 ef 02 3d 4c ff af 3d a4 b5 00 bd b0 74 1e 3d
       0.031966895 0.08593616 -0.031423226 0.0386855
000330 f0 c2 cf 3a e1 e0 35 3c 13 e4 a0 3d 46 73 5c bd
       0.0015850943 0.011100979 0.07856002 -0.05382087
000340 d7 30 b3 3c 48 65 f0 3d 9d 6f de 3c 36 69 c0 3d
       0.021873875 0.11738068 0.02715283 0.093950674
000350 ca 9c f2 bb 40 8d b1 3d a4 fb 11 bd 1a 3c 41 3d
       -0.0074039446 0.086695194 -0.035640374 0.047176458
000360 3e 67 0a 3d 5e 68 7e 3d 4e 0d a0 3d 15 41 00 3e
       0.033789866 0.06211125 0.07815038 0.12524827
000370 c9 82 8b 3d 68 0e 8b 3d 59 c8 e7 3d 03 34 31 3d
       0.06812055 0.06789857 0.1131751 0.043262493
000380 f5 5e 22 3e fc a9 c9 bd 92 02 3d bd c0 22 55 bd
       0.15856536 -0.09846875 -0.04614503 -0.052035093
000390 13 0f 98 bc ba 72 98 bb ef 14 1f bd ec 7d a6 bd
       -0.018561875 -0.0046523483 -0.038838323 -0.081294864
0003a0 8d fb 86 3c 87 f2 3b bc a0 b6 14 bc 1c 1d 99 bd
       0.01647737 -0.011471397 -0.009076744 -0.07476255
0003b0 92 68 35 3d 70 79 53 3d 9d 3a c1 bc 6e 96 db bd
       0.04428918 0.051629484 -0.02358752 -0.107220516
0003c0 8e 8e 2b 3d 15 63 8d bd 08 ff 3e bc 3e b7 8a bc
       0.041883998 -0.06903664 -0.011657484 -0.01693308
0003d0 6e 52 88 bd a3 d0 78 3c 11 59 9c bd 4b 41 a0 bb
       -0.06656347 0.015186462 -0.076341756 -0.004890596
0003e0 8d f1 97 bd c6 40 ff bc df 7b 0a 3e 4f 19 38 3e
       -0.07419119 -0.031158816 0.13523816 0.17978404
0003f0 90 eb 80 3d ed ce 0f 3e 0b a1 ac 3d c7 10 31 3a
       0.0629493 0.1404378 0.08429154 0.0006754514

conv_layer2.bias f4 [16]
000000 c0 9b bd 3e 38 fd e0 3a fe c8 87 bd 42 5e 3c 3e
       0.3703289 0.0017165309 -0.06630133 0.18395332
000010 1a 04 11 bc 64 6c 6c 3b ea 80 f5 be d3 77 ef 3c
       -0.008851076 0.0036075348 -0.47949916 0.029231941
000020 61 76 0d be c7 66 ab 3c 8c 80 97 3d 2a 3c 0e be
       -0.13814689 0.020923031 0.07397565 -0.13890138
000030 f5 0c 8d 3d 6c 93 81 bc 4f cb af 3d 78 f0 f9 bc
       0.06887237 -0.015817367 0.085837 -0.030510172

fc1.weight f4 [256, 400]
000000 ba 9e 39 bd 1d f5 51 3c f9 47 99 bb 5a 4d 20 bd
       -0.04531739 0.012814787 -0.0046777693 -0.03913627
000010 29 eb 97 bb f0 c7 bc 3b 2e 4d 0c 3d b0 0d 83 bc
       -0.0046361876 0.005761139 0.03425329 -0.015997738
000020 85 a0 38 3b ad 04 e4 3c ea b3 f7 3c c8 41 6a 3c
       0.002817185 0.02783426 0.030237157 0.01429791
000030 50 02 0b 3d 1b 04 90 3d b9 64 8e bb 26 7c 35 3d
       0.033937752 0.07032033 -0.004345503 0.04430785
000040 60 b8 5c 3d 95 0c cd bc 4c 0b d2 3c fb 04 24 3d
       0.05388677 -0.025030414 0.025640152 0.040043812
000050 4b a5 9c 3c f2 ea 44 3d 47 00 b0 3c 2d a8 4b 3d
       0.019121787 0.048075624 0.021484507 0.04972093
000060 28 52 d5 3b 21 72 1c bd 12 d1 38 3d 85 72 d7 3c
       0.006510038 -0.03819478 0.04512126 0.026299724
000070 47 fe 49 3d 90 d3 bd 3b 37 b8 c4 3c 58 56 1e 3d
       0.049314763 0.0057930425 0.024013622 0.038656563
000080 07 d3 90 3c ff 4a 26 bb 12 8b 4b 3b 0d 40 98 bc
       0.01767875 -0.002537429 0.0031058234 -0.01858523
000090 5b 7a 9d 3c 07 5a 9b bb 6d 40 73 3c 1b ea 1d bd
       0.019223383 -0.0047409567 0.014846903 -0.03855334
0000a0 ad 60 5c 3d 12 8a 8f bc c9 43 34 3d 9e 28 64 3d
       0.053803135 -0.017521892 0.044009957 0.055702798
0000b0 40 4f 08 bd 73 5b 54 3d d2 ed 8d bc 7a 8b 6a 3c
       -0.033278704 0.051845025 -0.017325316 0.01431548
0000c0 b2 38 46 3d 07 96 8e bb 55 85 24 3d 90 5f 04 bd
       0.048393913 -0.0043513807 0.040166218 -0.032317698
0000d0 a6 e2 7f bc 2d 08 25 bd a9 e6 df bc ae c0 10 3d
       -0.015618002 -0.040291 -0.027331667 0.035340004
0000e0 d8 05 be 3c 03 6f 94 bb 21 c8 fb 3a f8 f2 34 bd
       0.023196146 -0.004529835 0.0019209423 -0.044177026
0000f0 a9 50 10 3d a2 8b 35 bc 63 5c 9c bc 5f 6b 35 bd
       0.035233174 -0.011080654 -0.019087022 -0.04429185
000100 f9 f6 07 3d e5 ec 87 3c 4d 4a 44 3c 85 b0 07 bc
       0.033194516 0.016592452 0.011980605 -0.008281832
000110 b8 70 42 bd b0 0a 60 3c b1 c0 2a bc ae a7 38 bc
       -0.04747078 0.013674423 -0.010421918 -0.011270447
000120 63 43 10 bd a3 8f 0d bd e3 4b 29 3d 71 11 03 3d
       -0.035220515 -0.03456081 0.041332137 0.031999055
000130 9d ad 5e bc 8e 66 80 3c 97 2f 2d bb 2b 50 2d 3c
       -0.013591197 0.015673902 -0.002642607 0.010578196
000140 9e 37 e6 3c 15 5e 37 bd 65 a6 3b 3d 96 6e 1e 3d
       0.028102692 -0.044767458 0.045812983 0.03867968
000150 ab 77 90 3c b9 39 f3 bc c0 81 02 3b c0 be 0c bd
       0.017635187 -0.02969061 0.0019913763 -0.0343616
000160 60 b7 ec 3c 44 81 45 bc 6d d7 1c bc 5e c1 55 bd
       0.028896034 -0.012054745 -0.009572846 -0.052186362
000170 c9 a1 d0 3c 55 10 04 3d 42 a9 6c 3d ad 06 02 bc
       0.02546777 0.032242138 0.057778604 -0.007936162
000180 ba 40 14 3d b6 e5 01 3d 0b 38 49 3d cd 21 86 3d
       0.03619454 0.03171321 0.049125712 0.06549416
000190 e8 dc 40 bd de 8a d6 3a 1a 50 a8 bc af db da bc
       -0.047085673 0.001636829 -0.020546008 -0.026716081
0001a0 b6 79 02 3d ee 84 20 bc a8 c8 9d 3b 18 9a ed 3c
       0.031854354 -0.009797318 0.00481518 0.029004142
0001b0 a7 89 f9 3c 25 e5 bf 3c a8 bc 35 bc 27 02 43 bd
       0.030461146 0.023424694 -0.011092342 -0.047609475
0001c0 a2 5a 4f bd a5 a0 55 3c 8c d5 8f bb 66 0f 0b bd
       -0.050623544 0.013038789 -0.0043894704 -0.033950232
0001d0 41 43 91 3c 81 eb 2c 3d 72 32 d7 3c 48 8c 30 bc
       0.017732264 0.04221678 0.026269171 -0.010775633
0001e0 fe 84 ad 3b dc d1 0f bd 8f e5 a3 3c 12 b1 2c bd
       0.005295395 -0.035112247 0.020006923 -0.042161055
0001f0 b9 e4 f8 3c b6 8c 90 bc f0 cc a4 bc 71 a4 22 bd
       0.030382501 -0.017645221 -0.020117253 -0.039707605
000200 f6 d8 68 bc e7 68 3a bc a2 37 e4 bc 33 f2 00 3d
       -0.014211884 -0.01137755 -0.027858559 0.03148098
000210 d7 99 cc 3c 86 66 36 bd 37 92 88 bb e0 13 15 3c
       0.0249757 -0.044531368 -0.004167821 0.009098977
000220 15 a7 1c 3d 49 7a 92 bc 65 49 d7 3c 42 95 57 bb
       0.03824528 -0.017880576 0.026280114 -0.003289536
000230 f3 00 ad bc 4f df b2 3c e4 ef 40 bd 66 3c 43 3d
       -0.021118617 0.021834997 -0.047103778 0.047665022
000240 05 62 86 3d 85 42 2f 3b 40 4f b5 3c 7f 7b 79 3d
       0.065616645 0.002674253 0.022132516 0.06090879
000250 88 e2 f7 3c b7 76 86 3d ca fd a8 3c 0c e2 ed bc
       0.030259386 0.06565612 0.020628829 -0.029038452
000260 bb d4 04 bc cb 17 38 bd fb 3e 08 3d a9 ec a6 bc
       -0.0081073595 -0.044944566 0.033263188 -0.02037652
000270 4b 1d 3c 3c 4b d3 c9 bc e4 d9 b8 3b ed 13 b2 ba
       0.011481593 -0.024636885 0.005641209 -0.0013586261
000280 2c 41 98 3c 08 6f e3 bc e0 70 3f bd 5b dd 0b bc
       0.018585764 -0.027762905 -0.046738505 -0.008536662
000290 7c e6 19 bd 29 a3 58 bd 00 ca a7 bb 31 dd 78 bd
       -0.037573323 -0.052889977 -0.005120516 -0.06075782
0002a0 ff ed 53 bd ec 42 99 bc 60 d7 99 3c b6 b6 e0 bc
       -0.051740643 -0.018708669 0.018779457 -0.027430873
0002b0 6a 6b 27 bd 41 b6 0f bd 22 01 19 3d 5d 22 6b 3c
       -0.040873922 -0.03508592 0.037354596 0.014351455
0002c0 2b 4c bc bc 9b 05 1c bd 48 3d 26 bb a2 e6 8e 3c
       -0.022985538 -0.038091283 -0.0025366116 0.017443959
0002d0 65 84 f0 ba c4 09 08 3d 03 2f 3f 3d 2a b9 5d 3c
       -0.0018350004 0.03321244 0.046675693 0.013532916
0002e0 4e 45 00 3d b0 a1 8b 3c 3f fb b0 bc 39 82 0f 3c
       0.031316094 0.017044872 -0.021604178 0.008759075
0002f0 02 44 19 3d 38 fc 3d bc cd 8e 05 bc 68 1d c7 bc
       0.037418373 -0.011595778 -0.008151722 -0.024306014
000300 cd 48 1f bd 6c 98 93 3c 40 15 4f 3d 51 df c9 bc
       -0.038887788 0.018017016 0.050557375 -0.024642618
000310 e2 21 9c 3c 2e 54 05 3c 0c d0 83 3c d6 9f 40 3d
       0.019059125 0.008137746 0.016090415 0.04702743
000320 f8 01 71 3d 86 57 39 3d 60 57 28 bd f7 7d ca bc
       0.05883977 0.045249484 -0.041098952 -0.024718268
000330 d1 15 e6 3c 53 f7 97 bb 19 26 e9 3c 42 12 28 bc
       0.028086575 -0.0046376376 0.02846055 -0.010258259
000340 40 46 98 3c 33 3f 0b 3d 5c 69 d9 3c 7b 20 35 3d
       0.018588185 0.03399582 0.026539497 0.04422043
000350 83 76 f4 b9 fd d5 dd 3c 9a 1b 2b 3c fe c8 87 bc
       -0.00046627605 0.027079577 0.010443592 -0.016575333
000360 c6 58 3a bd a9 7b 00 3d 60 e3 c4 bc 47 cd cc 3c
       -0.045494817 0.03136793 -0.024034202 0.025000228
000370 0e a3 45 3d b3 fe 7f bb bb 6f 50 bd 61 94 76 bb
       0.048251204 -0.0039061725 -0.050887804 -0.0037625062
000380 db f9 c1 bc 60 0b 60 ba 5b b2 a1 bc 02 5c 1f 3d
       -0.02367871 -0.0008546617 -0.019738367 0.038906105
000390 09 87 47 bd 83 77 13 bd 16 49 b2 3c a1 1f 01 3d
       -0.048712764 -0.036002647 0.021763366 0.031524304
0003a0 9e f7 8e 3d 54 21 54 3c 5a 50 f1 bc b0 eb 38 3d
       0.06980823 0.012947399 -0.02945726 0.045146644
0003b0 58 a1 27 3d 08 9e 62 3d e9 9e f5 bb e1 dc ba bc
       0.040925354 0.05532649 -0.00749575 -0.022810401
0003c0 99 f3 fb ba 5e 42 01 3d f1 d2 25 3d 5b a4 24 bc
       -0.0019222378 0.031557433 0.040484373 -0.010048951
0003d0 47 f2 84 bb 05 66 b1 3c 19 80 b4 3d d9 a2 8b 3c
       -0.004057202 0.021655092 0.08813495 0.017045425
0003e0 ea 33 90 3d d6 c9 de bc 8b e6 45 bd 87 0e 37 bd
       0.07041152 -0.027195852 -0.048315566 -0.04469159
0003f0 97 38 10 3d be c9 27 bd 62 8b fa bb 67 55 36 bd
       0.03521022 -0.04096388 -0.0076460103 -0.04451504

fc1.bias f4 [256]
000000 a3 00 17 3d 96 ae 99 3c b6 61 3c 3c a8 63 77 bc
       0.03686584 0.018760007 0.0114979055 -0.0150994435
000010 68 d8 d4 bc 27 ae 09 3d 56 11 24 bd 59 9a 61 3d
       -0.025982097 0.03361335 -0.040055595 0.055078838
000020 50 ad 93 bc d7 57 14 bd 64 5a 4a 3d 5a f8 29 3d
       -0.018026978 -0.036216583 0.04940261 0.041496612
000030 e6 26 da bb 6b bf 4d bc 1d c7 bd 3b df 68 a2 bc
       -0.006657469 -0.012557845 0.0057915584 -0.019825397
000040 66 16 36 3d 2d 39 6c 3c 9d 02 1b 3d 57 89 7d 3c
       0.044454955 0.014417929 0.03784429 0.015474639
000050 6a af d3 bb 70 59 29 3d 97 c9 98 3c 0d 88 8a bd
       -0.00646012 0.04134506 0.018650813 -0.06764231
000060 14 5e 81 3d d6 3e 32 3d 03 f5 36 bc 14 aa d9 bb
       0.06316772 0.043516956 -0.011166814 -0.0066425893
000070 27 eb b9 bc 4b 4c 20 bc 5a 94 ad 3c a5 b4 42 3c
       -0.022695137 -0.009783815 0.021188904 0.011883889
000080 85 21 d2 ba 13 66 d9 38 90 b8 fd bc 3a 05 06 bd
       -0.0016031718 0.00010366379 -0.030971795 -0.03271983
000090 37 fe 93 bc 63 87 1d bd 36 ea 0f 3d 27 0f e3 3c
       -0.018065555 -0.038459193 0.03513547 0.027717186
0000a0 75 59 1e bc d2 26 f2 3c 20 23 61 3d 7d 10 4e 3d
       -0.009664883 0.029559527 0.05496514 0.050308693
0000b0 b0 92 39 bc 30 17 3e bd 20 5c da 3c cc c1 3f 3d
       -0.011326477 -0.046408832 0.026655257 0.04681568
0000c0 17 8a f6 3b 41 65 4e bc ab 0a 31 3d 76 70 3e 3d
       0.007523786 -0.012597383 0.043223064 0.04649397
0000d0 0f 38 03 bd 1d 99 c1 bb 8e 15 02 bd 6a d5 d7 bb
       -0.032035884 -0.005908145 -0.031758837 -0.0065867202
0000e0 0e 95 00 bd 57 6c 4b bc ac 5a 90 bd 51 24 ab ba
       -0.03139215 -0.012415967 -0.07048544 -0.0013057088
0000f0 c3 af d4 ba f0 f0 6c 3d 2c f1 87 bd 6d d7 28 3d
       -0.0016226697 0.057846963 -0.06637797 0.04122107
000100 f0 66 35 3b 1e aa 88 bd 9f 12 81 3d e8 8e e0 3c
       0.0027679764 -0.06673072 0.0630238 0.027411893
000110 aa 2a 5b bc 59 46 f9 bc 13 d6 90 bb 14 d8 2e 3b
       -0.013376871 -0.030429052 -0.004420051 0.0026679086
000120 c7 f6 95 bc 88 ee e7 3c 48 06 33 bd d4 96 07 3d
       -0.01830615 0.028311983 -0.043707162 0.033102825
000130 17 d2 bb 3c 63 16 2c bd df fb e5 bc de 35 3a 3c
       0.022927327 -0.042013537 -0.028074203 0.011365382
000140 af da 96 bc af 8b e1 bc d9 72 a5 3d 88 31 19 bd
       -0.018414823 -0.027532427 0.08078546 -0.037400752
000150 91 32 cc 3c 25 a0 30 3d 4f f4 cf 3c 22 99 6c 3d
       0.024926456 0.043121476 0.02538505 0.057763226
000160 97 5f fe bc 10 1c 6b 3d 08 a1 ee bc 84 e9 38 3c
       -0.03105144 0.05739981 -0.02912952 0.011286143
000170 85 57 3d 3d ca 23 4d 3c f4 63 25 3d 75 aa 84 bc
       0.046226043 0.01252074 0.040378526 -0.016194561
000180 ce 86 f9 bc d7 8a 11 bd d9 55 33 3d a0 fe 1a bd
       -0.030459788 -0.0355328 0.043783043 -0.037840486
000190 da f5 77 bc 11 25 18 bd df c4 b0 bc fc 52 02 bc
       -0.015134299 -0.037144724 -0.02157825 -0.007954355
0001a0 72 76 d0 bc a2 3c 46 bd c6 75 19 bd cc bd ca bc
       -0.025447104 -0.048397668 -0.037465833 -0.024748705
0001b0 c5 46 b3 bc 6f 6c d5 3c 37 07 16 bd 26 44 63 bc
       -0.021884331 0.026052682 -0.036627974 -0.013871228
0001c0 c6 f9 0e bd c3 70 4b bd cf 74 6d 3c 43 75 b2 bc
       -0.03490617 -0.049668085 0.014493181 -0.02178443
0001d0 7c fd 4b 3b 95 33 08 3b a3 fd 41 bd 98 1d 65 bc
       0.003112643 0.0020782698 -0.047361027 -0.0139841065
0001e0 09 17 be 3c d0 e8 84 3c 21 07 32 bd f2 24 13 bd
       0.023204343 0.016224295 -0.04346383 -0.035923906
0001f0 74 ef cf 3c b8 ec fc 3c b8 bf ec bc c7 fa c7 bc
       0.025382735 0.030874595 -0.028900012 -0.024411572
000200 5e 6d 2b bc 04 e7 24 3d d0 2b 34 3d 2c 2a 32 3d
       -0.010463087 0.040259376 0.043987095 0.04349725
000210 8e d2 a2 3c bf 4f ae bb 98 02 bd 3c c0 9c b1 bc
       0.01987579 -0.005319565 0.023072526 -0.02168119
000220 3a 60 2d bc 4c b7 14 3c b8 49 4c bd 76 49 2c bc
       -0.010582024 0.0090769045 -0.04987499 -0.010515561
000230 a1 bd 33 bc 6f 47 c8 3c 0e c6 0c 3d 0f a5 2b bd
       -0.010970504 0.024448125 0.034368567 -0.04190546
000240 5a 5c d4 3c cd 14 ce bc b1 b4 08 3d 51 ae 60 bd
       0.025922943 -0.025156403 0.033375446 -0.05485374
000250 a2 26 1e 3d 78 eb c5 3d f5 71 3f 3c 7c 30 1e bd
       0.038611062 0.09664053 0.011684884 -0.038620457
000260 bb 69 b8 3c 71 3b 09 3c 1d d0 00 bc dc aa 20 3c
       0.022511354 0.008375988 -0.007862118 0.009806361
000270 4b 5e 54 3d ab 5e 1e 3b 3c 7b f2 ba c0 80 22 3d
       0.051847737 0.0024165313 -0.0018499861 0.039673567
000280 6d d7 ba bc 76 1d f1 bc 0a 37 a7 b9 81 7a a1 bc
       -0.022807801 -0.029432993 -0.0003189373 -0.019711735
000290 61 3d 2b 3b d1 d6 28 bc c7 f8 9c bc 5e 85 8a 3d
       0.0026129114 -0.0103051225 -0.019161595 0.06763719
0002a0 c0 30 04 bc d7 2d 33 3c ce 23 b4 bc 29 cc d3 3c
       -0.0080682635 0.010936222 -0.02198973 0.025854187
0002b0 59 f0 60 39 2e 82 12 bd 8d 2d 08 bd 7e 91 95 ba
       0.00021451841 -0.03576868 -0.033246566 -0.0011411158
0002c0 1d c3 6e bd e5 97 ca bc 88 8c 6e bc f9 aa 2e bc
       -0.058291543 -0.024730632 -0.014559872 -0.01066088
0002d0 49 7b ca bb d0 a6 03 3d d6 5a 9b 3d 81 6c 4a bc
       -0.0061792475 0.032141507 0.07585685 -0.012354971
0002e0 16 f1 1b bd 0f 8c 8a bc 5f 8d fc bc dd 9b 22 3d
       -0.038071714 -0.016912488 -0.03082913 0.039699424
0002f0 b9 0b 5d bc 8b 3a 8f bc dd ff ab bc 11 06 5b 3d
       -0.013491564 -0.01748397 -0.020996029 0.053472582
000300 ed ab 7c 3b 29 ca 81 bd 00 24 ce ba d6 bc 91 bb
       0.0038554624 -0.06337387 -0.0015727282 -0.00444756
000310 44 b8 94 bc 33 03 13 bd ef ba 44 3d e1 36 5e 3d
       -0.018154271 -0.035891723 0.048029836 0.054251555
000320 5a e7 51 3d 73 09 35 3d 85 9c 13 3d 39 6d 00 3d
       0.051246025 0.044198465 0.03603794 0.031354163
000330 e2 2c 34 3c d2 49 8f 3c 3e bf c3 3c 83 e2 17 3d
       0.010997029 0.017491255 0.023894902 0.037081253
000340 f5 76 11 3d 55 fb 80 3d 54 e6 52 bc f4 c3 9e 3c
       0.035513837 0.06297938 -0.012872297 0.019380547
000350 10 a2 2c bd de 43 42 3d 94 f5 1f 3d 67 e9 8f bc
       -0.042146742 0.047428004 0.03905256 -0.01756735
000360 1c eb 66 bd 10 40 85 3c 97 b6 88 bc 61 46 04 3d
       -0.05637656 0.016265899 -0.016688628 0.03229368
000370 d9 53 13 bd b4 d4 97 3d 24 0d ba bc b9 84 3d bd
       -0.035968635 0.07413617 -0.022711344 -0.046269152
000380 ea e2 b0 bc 44 8d 9c 3c 80 66 de 3c 3f ff d8 39
       -0.021592576 0.01911033 0.027148485 0.00041388904
000390 5d 1b 97 bc b8 8c b1 bc 90 89 2d bd f0 1e c8 3c
       -0.018445665 -0.021673545 -0.042367518 0.024428815
0003a0 47 0c 27 3c 66 37 bf 3c 22 1a 6b 3c 62 4e fd 3c
       0.010195798 0.023341846 0.014349492 0.030921165
0003b0 9f d7 b6 3c cd e0 7f bc fa 92 39 3d 4d d0 cd 3c
       0.022319613 -0.0156175615 0.045306183 0.02512374
0003c0 be af ec 3c 5a 6c 37 3d 35 42 68 bd 01 2c 49 bc
       0.028892394 0.044781066 -0.056703765 -0.012278558
0003d0 8b b8 af bb 96 83 02 3d 15 35 2c 3c 65 6a 86 3c
       -0.0053625754 0.03186377 0.010510703 0.016408155
0003e0 45 cf d4 bc f1 a0 9f bd 8b 59 04 3d 98 90 8c bc
       -0.02597774 -0.07794369 0.032311957 -0.017158791
0003f0 b6 0b f7 bc 46 63 8b 3d c8 d0 1f bd 46 27 f7 bc
       -0.030156951 0.06806044 -0.03901747 -0.030170094

fc2.weight f4 [128, 256]
000000 1a ef 5a bd 54 40 75 bc 18 e9 22 3d 5e d3 fb 3b
       -0.05345068 -0.01496895 0.039773077 0.007685109
000010 d0 4b e9 3c eb ea b2 bc 15 67 8d 3c 64 25 5e 3d
       0.028478533 -0.021840533 0.017261067 0.054234877
000020 a7 5d 2e 3c ca f2 94 bb 77 b0 94 bd a0 dd 15 3d
       0.010642446 -0.0045455443 -0.072602205 0.03658831
000030 8a a2 cd 3c a2 d0 82 bd 97 7c 31 bc b8 c0 b9 bd
       0.025101919 -0.0638745 -0.010832927 -0.09069961
000040 f5 54 45 bd 4e f4 78 3d 20 73 85 3d 2b 27 0e bd
       -0.048176724 0.060779862 0.06516099 -0.034705322
000050 fb 0b ad 3d 00 fa 57 3c a6 ba 93 3b c2 e3 9e 3b
       0.08449551 0.013182163 0.004508334 0.004848928
000060 13 d0 2e bd 58 f9 44 bd fd 71 8d 3d cd c1 77 3d
       -0.042678904 -0.048089355 0.06906507 0.060487557
000070 02 87 53 3c 67 50 b9 bc 7e 26 93 39 97 36 cb 3c
       0.012910606 -0.022621347 0.00028066704 0.024806304
000080 46 3b 52 bd b0 39 32 3d 83 f1 4d 3c cf 2e 9b 3c
       -0.05132606 0.043512046 0.012569788 0.018943219
000090 96 c9 b7 bb ab 0a 77 bd ba 91 ee bc c4 76 1f bd
       -0.0056087477 -0.06031291 -0.029122222 -0.038931623
0000a0 40 0a f2 3c b7 0c 02 3d 1a ad bd 3c d8 08 7a ba
       0.029545903 0.031750407 0.02315383 -0.0009538061
0000b0 4f c9 21 3d 01 72 5e 3d 45 9d 3d 3d 27 0b 15 3d
       0.039498623 0.05430794 0.046292562 0.03638759
0000c0 05 28 6d 3d a9 e2 4e bc 15 00 9b 3d 48 86 48 bc
       0.057899494 -0.012627282 0.07568375 -0.012239046
0000d0 02 42 80 bd d7 d2 c9 bc cb d0 90 bd 34 77 b2 bc
       -0.0626259 -0.02463667 -0.07071074 -0.021785356
0000e0 7d 39 4f bd 6c 35 00 3d 85 eb 58 3c 6a a4 f9 bc
       -0.050591934 0.031300947 0.013239746 -0.030473907
0000f0 d7 0f 11 bd e5 17 be 3a b0 d0 42 3d 20 c5 55 bd
       -0.035415497 0.0014502971 0.0475623 -0.052189946
000100 b3 c4 94 3d b9 8a 2c 3d 6f a6 0e bd 12 e5 47 3d
       0.0726408 0.042124484 -0.034826692 0.048802443
000110 22 ea 02 bb 72 87 dc bb 8c 60 f5 bc 9d 09 31 bd
       -0.001997598 -0.0067300135 -0.029953264 -0.04322206
000120 86 31 08 bd f8 03 5e 3c 2a 2e 1c 3c 67 02 fe 3c
       -0.033250354 0.013550751 0.009532491 0.031007005
000130 e9 d3 11 3d 88 b8 77 3d 6c 08 97 ba 35 41 9b bb
       0.035602484 0.060478717 -0.0011522896 -0.004737998
000140 14 71 8a 3d 16 f1 ab bd 95 c8 a1 3b f6 9e 82 bd
       0.06759849 -0.08395593 0.0049372413 -0.06377976
000150 2c 64 ba 3c 9f 90 8b bd 0a fb 10 3c 8b d8 5e 3d
       0.022752844 -0.06814694 0.008848915 0.05440573
000160 1d 7d 7d 3d 3e ae 40 bd 22 05 4a bd eb e0 74 3d
       0.061886895 -0.04704117 -0.0493213 0.05978481
000170 67 a8 5a 3d d7 33 22 bc 9f 75 7e 3c 25 e9 48 3d
       0.053383257 -0.009900055 0.015530973 0.04905047
000180 77 15 1a 3d 13 21 4d bd 15 e8 23 bd 9e 75 f4 3c
       0.037618127 -0.05008037 -0.040016253 0.02984124
000190 af 26 ae 3c 95 1c 64 bb 59 9e 93 3c 54 33 85 bd
       0.02125868 -0.0034807075 0.018019842 -0.06503931
0001a0 43 22 4d bd 09 7b 13 ba af 2f db 3c 5e 08 84 ba
       -0.050081503 -0.00056259386 0.026756136 -0.0010073294
0001b0 4c 7f 7e 3c 09 0f e4 bc aa 40 0e 3c 01 88 eb 3c
       0.01553328 -0.0278392 0.008682409 0.028751375
0001c0 ab e0 c2 bd 89 05 0b 3d c8 79 2d 3d 74 e5 bc 3d
       -0.09515508 0.033940826 0.042352468 0.09223452
0001d0 ae 4d a7 3d eb 13 22 bb 02 cd 51 bc 50 52 40 3d
       0.08169113 -0.002473111 -0.012805225 0.0469535
0001e0 6e 91 a9 bd e9 e1 60 bd 9e 49 18 3d e9 3c 2c 3c
       -0.08279692 -0.054902945 0.03717958 0.010512569
0001f0 45 c8 30 bd 5c c1 89 bc d3 81 70 bc ef 2c 99 3c
       -0.043159742 -0.016815834 -0.01467939 0.018698184
000200 cb 4c 72 bc bd 1b 5e bd cf b9 58 3d 78 3e e0 ba
       -0.014788817 -0.054225672 0.052911576 -0.0017108461
000210 ba 47 9b bc 94 7a a2 bc 88 fe 95 bd 4f 81 91 3c
       -0.0189551 -0.01983384 -0.073239386 0.017761854
000220 ea 45 92 bc 7f 2d bd bc 07 fa 46 3b d7 39 ea 3d
       -0.017855603 -0.023092983 0.003036143 0.11436813
000230 0a 49 33 3c 05 6f 25 bd 1c 43 34 3d be 15 31 bc
       0.010942707 -0.04038908 0.044009313 -0.010808406
000240 7d df a5 bc 2b 64 40 bc 82 4d d9 3b 4c f7 cf 3d
       -0.02024817 -0.011742632 0.006631554 0.1015459
000250 f8 ec 82 3d 95 20 1a 3d da 3e 0e 3d 5e 8e dd 3a
       0.063928545 0.03762873 0.03472791 0.0016903391
000260 c0 bc b2 3c da db 69 bd a7 56 99 3c 42 4a 97 bd
       0.021818519 -0.057094432 0.018718077 -0.073872104
000270 1a bc 0b 3d 23 dd 50 3d fb 7e b3 3d af 48 a3 3c
       0.034114935 0.050992142 0.08764454 0.01993212
000280 95 71 87 bd 72 35 e8 bc f9 ad 3d 3d b1 a5 40 bc
       -0.06613461 -0.028345797 0.04630849 -0.011758254
000290 77 0f 26 bd 59 47 fc 3b 38 a5 86 bc 24 04 cf bc
       -0.040542092 0.007698935 -0.016436204 -0.02527053
0002a0 14 42 6b 3d 82 2a 5d 3d 5c 73 59 bc 9d 7c 19 bd
       0.057436064 0.053995617 -0.013272133 -0.037472356
0002b0 d6 a6 0a 3c 4b 45 bf bc 11 18 6c bd 40 9b 9a 3c
       0.008462628 -0.023348471 -0.05764014 0.018872857
0002c0 bf bf 2b 3d a1 ed aa 3c ca 51 14 bc 4a 3c 60 bd
       0.04193091 0.020865263 -0.009052703 -0.054744996
0002d0 d2 77 8d bc 85 40 c0 3c 54 23 59 bd d0 cc d9 bc
       -0.017269049 0.023468265 -0.053012207 -0.02658692
0002e0 75 7d 4f bd 29 22 59 bd 99 26 dd bc 2a 67 84 bd
       -0.050656755 -0.053011093 -0.026995944 -0.064649895
0002f0 c8 26 9c bc cd 92 ca bc de da 91 bd 7a f4 0d 3d
       -0.019061461 -0.024728203 -0.07121824 0.03465698
000300 43 dc 6c bd ae 05 58 bd a3 e9 b9 bd 78 3b 35 3d
       -0.057827245 -0.05273979 -0.09077766 0.044246167
000310 61 cf 1f bc 0f 2c 78 bc d6 59 8c 3c 32 2c 17 bd
       -0.009754033 -0.015147223 0.01713268 -0.036907382
000320 30 04 60 bc bf b7 bb 3d ce 69 36 bd 83 34 01 3c
       -0.013672873 0.09165906 -0.044534497 0.007886055
000330 3b d3 34 bc 96 9d 33 3c 5f dd 1c bd fa 69 1b bd
       -0.011036689 0.010962864 -0.038297053 -0.037942864
000340 7f 0f 37 3d e5 97 b5 bc 92 b5 fc bc 63 1c 45 bd
       0.044692513 -0.022167156 -0.030848298 -0.048122775
000350 22 df 5e bd 4a 34 ab bc 08 d5 9e bd ab c2 66 3d
       -0.054412015 -0.020898957 -0.07755476 0.056337994
000360 c1 fb 33 3d 23 29 0a 3d fd f2 50 bd a2 61 2d 3d
       0.043941263 0.033730637 -0.05101298 0.042329438
000370 5d 9b 90 bd fa 1e 2c bc aa 1d 9e 3d eb 8d 98 3c
       -0.07060883 -0.010505432 0.07720502 0.01862236
000380 9b 46 29 3d 5e db a0 bb d0 aa fd 3c 38 34 9e bc
       0.0413271 -0.004908963 0.030965239 -0.01931201
000390 6b 24 57 ba ec b5 d9 3d 69 26 5b bc 02 0b b8 bd
       -0.0008207026 0.10630402 -0.013375857 -0.089864746
0003a0 30 03 88 bd a0 ef 44 3d 47 4c a3 bc b6 67 26 bd
       -0.06641233 0.048080087 -0.019933833 -0.04062625
0003b0 51 e8 16 3c f7 31 97 3d c8 93 50 bb ac ce c4 3b
       0.009210662 0.07382577 -0.0031826366 0.0060060825
0003c0 3f 13 84 bc 4f 02 6d bd 42 65 b4 3d 23 f0 2f bc
       -0.016122459 -0.05786353 0.08808376 -0.010738405
0003d0 8d b4 8c bd a2 88 8e 3d 8b b1 13 bd b1 12 58 3d
       -0.06870375 0.069596544 -0.03605799 0.0527522
0003e0 a1 6d 2d bd cb c2 40 3d b2 73 9e bd c9 0e 0b bd
       -0.04234088 0.04706077 -0.07736911 -0.033949647
0003f0 99 0d 0f bd 9f 70 55 bb fd 4a db 3b bd fd 75 bd
       -0.034925077 -0.0032568348 0.006692289 -0.060056437

fc2.bias f4 [128]
000000 63 99 3f bd fb f2 64 3c 2f 1b 51 bc bb 08 ae 3b
       -0.04677714 0.013973947 -0.012762829 0.0053110993
000010 08 21 d9 bc 12 05 74 bd 4b a5 0e bb 3f b9 75 3d
       -0.026505008 -0.059575148 -0.0021766003 0.059991118
000020 02 1f f5 3d 56 8e dd 3d 21 d5 15 be e4 d6 74 bd
       0.11968805 0.10818164 -0.14632083 -0.05977525
000030 ea 1f d3 bb 2e 45 a6 3d 53 58 f9 3b c0 3e ad 3d
       -0.0064430134 0.08118664 0.007609406 0.08459234
000040 78 69 07 3e e7 f1 d3 3c 8d 31 07 3e 3f 06 b3 3c
       0.13223827 0.025872184 0.13202496 0.021853564
000050 98 59 1d 3d 75 b5 60 3c 0b 7f 0b 3d a8 91 46 3c
       0.03841552 0.013715138 0.034056704 0.012119688
000060 c3 2c 6d bd 39 1f 4e 3c 87 86 a7 3b 3f 44 f7 3c
       -0.057904016 0.012580686 0.0051124725 0.03018391
000070 19 87 a0 3c 2b 71 bc 3d b0 d0 1f bd 59 d7 3c ba
       0.01959567 0.092012726 -0.03901738 -0.000720372
000080 6f 2e ca 3b 11 d3 45 3d 36 77 88 bd 68 30 00 3d
       0.006170086 0.04829699 -0.06663363 0.031296164
000090 32 cb bc 3d a8 de fa bc 08 16 c8 bc d3 53 81 bd
       0.09218444 -0.030623749 -0.024424568 -0.06314816
0000a0 4a 6d 2b bc 70 3b ac 3d ac 18 26 bd f2 88 db bc
       -0.010463068 0.08409774 -0.040550873 -0.026798699
0000b0 fd 44 bc 3c 8b db a2 bc 3f 0a a6 bc 57 7b 06 bd
       0.022982115 -0.019880077 -0.020268558 -0.03283247
0000c0 1c dc 0e 3d 14 64 cc 3d 91 49 3b 3d 74 ef bb bb
       0.03487788 0.09980026 0.045724455 -0.005735332
0000d0 09 15 6b bd eb 2b cb 3c da fc 2f bd 4b 4b a2 3d
       -0.057393108 0.024801215 -0.042965747 0.07924517
0000e0 50 f5 8d bb 4e cd 82 3b fe ce 46 bc ef 4b 3e 3b
       -0.004332222 0.0039917594 -0.012134312 0.002903696
0000f0 51 41 0f 3d 78 7e cd bd a1 64 19 bd 88 37 59 bc
       0.0349744 -0.100338876 -0.037449483 -0.013257869
000100 cd 5c 6a bd 13 1e 4c bc f4 41 a5 bd 0d 72 5d bd
       -0.057217408 -0.012458342 -0.0806922 -0.054063845
000110 ec 18 18 3d 08 b2 63 3d c7 8a e3 3d be 0e 52 bd
       0.037133142 0.055589706 0.11110454 -0.05128359
000120 0d eb ce 3b 6e fd 7a bc 96 48 bd bc bf 53 a1 bd
       0.0063146413 -0.015319211 -0.0231059 -0.078773014
000130 a6 5d cb 3c 42 08 1e 3e 71 4e 3b bd dc fa be bd
       0.024824928 0.15432838 -0.045729104 -0.093251914
000140 c3 70 a6 3c 6b b2 d9 bc 60 93 0a 3d 0a a8 10 3d
       0.02031744 -0.026574334 0.033831954 0.035316505
000150 99 b0 af 3c fe f8 7e bc 50 7c 3a bd d4 fa a7 3d
       0.021446513 -0.015562294 -0.04552871 0.082021385
000160 1f b2 0c 3d 59 7a 4c bd 32 34 2f 3c 06 56 b1 3d
       0.034349557 -0.049921367 0.010693597 0.08658986
000170 44 ee 90 3d 99 ac 89 3b b0 8a 92 3d 9a 75 a7 3b
       0.070766956 0.0042014834 0.07155359 0.0051104547
000180 cc d3 20 3d 74 34 9e bd ba c6 36 bd 32 31 58 3d
       0.039264485 -0.077248484 -0.044623114 0.05278129
000190 f5 37 eb bc d9 8d b9 3c 91 dd 6b bd e4 fc 1d 3d
       -0.028713206 0.022650646 -0.05758435 0.038571253
0001a0 7a 49 78 bc 2f 25 e3 3d d3 32 81 bd 0b 67 73 bd
       -0.015154237 0.110910766 -0.06308522 -0.05942444
0001b0 7a 2d 0b 3d d7 25 c0 3d 01 03 18 bd 59 bc 45 3d
       0.033978917 0.093822174 -0.03711224 0.048275325
0001c0 a2 33 d5 bc c1 b8 3b bd 68 c3 8e 3d 31 a1 df 3c
       -0.026025597 -0.045830492 0.069708645 0.027298542
0001d0 9d d3 50 bc 8e 8e 9a bd cc 20 4b 3c ed 6b 14 bd
       -0.012745765 -0.075467214 0.012397956 -0.03623574
0001e0 a1 0d 06 3c f5 bc 06 3d 64 76 af bb 0b 03 f2 3c
       0.00818196 0.032895047 -0.0053546894 0.029542467
0001f0 1a 40 2c bc 82 10 6e bd 4d f0 93 bc 42 6e 85 3d
       -0.01051333 -0.05812121 -0.01805892 0.06515171

fc3.weight f4 [100, 128]
000000 6a 1e 89 bd 55 7c 9f bd bd c2 af bd b0 5e b0 bc
       -0.06695254 -0.07787386 -0.08582065 -0.021529526
000010 ef a8 22 3d f2 52 dc 3c 3e 20 0e bd 38 e1 bf 3d
       0.03971189 0.02689502 -0.034698717 0.09369129
000020 cd e4 a3 3d ac 33 c2 bd 58 7b fc bc fa 52 4e bd
       0.08002625 -0.09482512 -0.030820534 -0.0503721
000030 af ee 37 bd 26 88 30 3b 31 e8 27 bd cd a2 59 3c
       -0.04490536 0.002693662 -0.04099292 0.013283444
000040 22 ab 51 bd 53 a0 e2 3a b8 23 1f bd 8d 70 01 bd
       -0.051188596 0.0017290212 -0.038852423 -0.031601477
000050 84 7e 14 bd 46 9f c2 3c 30 c3 b2 bc 34 3d e2 bd
       -0.036253467 0.023757588 -0.021821588 -0.1104683
000060 f5 0e 33 3c a1 5a 94 3c 71 30 5b bd 82 c1 c6 3c
       0.010928859 0.018109621 -0.053512994 0.024262194
000070 bf 23 9a 3d c3 45 71 bd cb 3e 2b bd ad d4 ee bd
       0.07526349 -0.05890442 -0.04180793 -0.116616584
000080 fb 55 0e 3d f5 ab 00 bd 92 a1 24 bc b5 4a 32 3b
       0.034749966 -0.03141399 -0.010048287 0.0027205173
000090 2c c2 96 3d d3 9d 54 3c 20 dd 0c bd 0b 08 5a bd
       0.07361254 0.012977081 -0.03439057 -0.053230327
0000a0 d7 42 3f bd 98 be 32 bd be c7 f4 3b 64 ec 0d bd
       -0.046694603 -0.043638796 0.0074701 -0.034649268
0000b0 3a ab e9 bd 32 15 fd bd 22 e8 ae 3c c9 0c db 3c
       -0.11409612 -0.12357558 0.021350924 0.026739495
0000c0 b7 9b b4 3d 64 4d 8c bd 06 4a 87 3d c8 0f a5 bc
       0.08818763 -0.068506986 0.06605916 -0.020149127
0000d0 fb 98 eb 39 74 e9 23 3d fc b4 18 bd 6d 54 1d 3c
       0.00044936672 0.04001756 -0.037281975 0.009602648
0000e0 f7 12 95 3d 90 08 b0 3d 8c ad 29 bd b7 37 a3 bd
       0.07279008 0.08595383 -0.041425273 -0.07969611
0000f0 75 c0 c9 3c 0b 8e c8 3c db 6c ac 3c e5 44 3b bd
       0.024627903 0.024481794 0.021048 -0.04572
000100 a9 68 a0 3d ef 03 0b 3b 27 7a 25 bd 30 1c fb 3c
       0.07832462 0.0021212061 -0.040399697 0.03065309
000110 2b da a3 bd fc 4b 0e bd e1 0d af bd 42 bf 1b 3e
       -0.080005966 -0.034740433 -0.08547569 0.15209678
000120 2a 40 a0 3d e8 7a 86 bb d5 84 90 bd 03 c6 f7 3d
       0.07824738 -0.004104007 -0.07056586 0.120983146
000130 33 dc 45 bc e3 42 71 3d 43 1f 8d bc ce 6c 64 b9
       -0.012076425 0.05890168 -0.01722682 -0.00021784307
000140 f3 bc 91 bd 65 f4 9f bd fe f4 c2 ba 84 e9 91 3d
       -0.07116117 -0.078102864 -0.0014874039 0.07124618
000150 32 4d 2b bd b6 29 55 3d 33 11 a2 3d d1 d2 a1 3d
       -0.041821666 0.05204173 0.07913437 0.07901538
000160 21 fc 7c 3d 7a 7c 86 3d dc b3 10 3d 7c 81 f7 3c
       0.061763886 0.06566711 0.035327777 0.03021311
000170 99 d4 9b 3d 86 ba 16 3d 1f f6 28 bd 43 05 d8 bb
       0.07608909 0.036798976 -0.041250344 -0.006592424
000180 c9 54 00 be 45 2d 83 3d a1 af 2c 3d 5d 81 a9 bd
       -0.12532343 0.06405119 0.04215968 -0.08276627
000190 54 32 f5 bc 11 8c e1 3c 7c b6 6a bd 92 ac e9 bc
       -0.029931225 0.02753261 -0.057302937 -0.02852467
0001a0 2a 0b 98 bb 48 2f f3 3d 15 8a 15 bd 18 5b a8 3d
       -0.0046400027 0.118742526 -0.03650864 0.082205
0001b0 cb 9a b5 bc f2 78 fc 3b 6d 15 23 3d 10 d4 16 3d
       -0.022168538 0.0077048475 0.039815355 0.036823332
0001c0 a3 b8 92 bd 60 cb 53 bd a5 50 02 3e d6 47 7c bd
       -0.07164123 -0.051707625 0.12726076 -0.061591946
0001d0 3b 5d fc 3b 75 ac 96 3c ce c4 ca bc db 68 ee 3c
       0.0077015436 0.01839278 -0.024752047 0.029102733
0001e0 ea 83 b4 3b 12 ce 7f 3d de 12 7a bd 83 ff 93 3d
       0.0055088894 0.062452383 -0.06105315 0.07226469
0001f0 e2 81 4e 3c c9 35 ac 3d 13 f0 7c bc a1 53 83 3d
       0.012604209 0.08408696 -0.0154380975 0.06412435
000200 d4 6f 20 3c f6 9b b5 bd 09 aa c4 3c 32 6b 28 bc
       0.009792287 -0.08867638 0.02400686 -0.010279464
000210 96 37 a7 3c ee 6e 2e bd b1 32 13 bd 95 16 2b bd
       0.020412248 -0.04258626 -0.035937015 -0.041769583
000220 8e 0a a2 3d ce 82 8a 3c 7d ee 34 bd e7 ff b4 3d
       0.079121694 0.016908076 -0.044172753 0.08837872
000230 fe 6d 4e bd f3 79 d7 bc 60 ac 85 bd 00 5e 9e 3a
       -0.050397865 -0.026303267 -0.065270185 0.0012082458
000240 94 fb c1 bc 8d ab b4 bd 02 3f 2c bd 10 a4 1c bb
       -0.023679532 -0.08821783 -0.042052276 -0.00239015
000250 3c 33 d1 bc 4e e1 a4 3d 0f 50 0a bd 63 01 fd 3b
       -0.025537126 0.08050786 -0.033767756 0.0077211126
000260 ee b7 98 3d 1d df 17 bd 7b bb 64 ba c8 0f c9 3c
       0.07456957 -0.03707801 -0.00087254465 0.024543658
000270 c6 1b 71 bd aa fa f5 bc 32 cf 99 bd 98 3c ba 3d
       -0.058864377 -0.030026753 -0.075102225 0.090935886
000280 e3 7e ae bc b7 49 71 bc 49 97 ea bc 0a b6 b5 bd
       -0.021300739 -0.014727048 -0.028636592 -0.08872612
000290 45 7e cd 3d 8c d2 04 3d c9 a1 80 bc 99 6a 08 3d
       0.100338496 0.032427356 -0.015702145 0.033304784
0002a0 18 0e 9d bd 2d 7d da 3d 46 72 14 3d 3d ee b2 3c
       -0.07668704 0.10668407 0.036241792 0.021842116
0002b0 b5 4e 19 bd 94 d3 f4 3c 4b 7d f5 bc f4 6f 9f 3d
       -0.037428576 0.029886045 -0.02996697 0.07785025
0002c0 b6 a1 5b bd 53 4c 20 3d d1 3b 04 3d 5c 8c a1 3d
       -0.053621016 0.03913529 0.032283608 0.078880996
0002d0 56 cc 41 3c 67 73 7b 3b f6 13 8a 3d 7a 9f 44 3d
       0.011828503 0.0038368346 0.067420885 0.04800365
0002e0 3e b9 b2 3d 90 cf 8a 3d 8a b2 b9 3d bd 11 c2 3d
       0.087267384 0.06777871 0.09067257 0.094760396
0002f0 6d c4 9c bb 53 38 25 3d 1c fe eb bb 12 d8 d1 3d
       -0.004784158 0.040336918 -0.007201923 0.1024629
000300 ae e3 c0 3c 3f c0 df 3c f7 39 02 bc dd 5c 91 3d
       0.023546066 0.02731335 -0.00794839 0.070977904
000310 e3 d7 c1 3c 97 e5 85 bd 1d 58 ef bc dc 22 b8 bd
       0.023662513 -0.065379314 -0.02921682 -0.08991024
000320 d0 82 a9 3d b5 04 a9 bd 18 9d 0a 3d 60 e1 5f 3c
       0.08276904 -0.08252851 0.033841223 0.013664573
000330 ca 31 d7 bc c4 f4 f6 3c d1 2f 4b bd ee 15 7a bd
       -0.026268858 0.03014601 -0.04960615 -0.06105607
000340 68 5d fb bc 5c e7 15 39 55 45 8f bc 5c 8b b4 bc
       -0.030684188 0.00014295935 -0.017489115 -0.022039108
000350 46 d1 7b 3d 45 8d 99 3d 9a 16 88 3d 49 40 5e 3d
       0.061478876 0.07497648 0.06644936 0.054260526
000360 5d 02 cb 39 0a 4b 36 bd cc b9 28 3d 59 e5 93 bd
       0.00038720938 -0.044505157 0.041192815 -0.07221479
000370 3e 36 07 bd 18 48 0a 3d 86 97 84 bd a7 59 a2 3d
       -0.033010714 0.03376016 -0.06474213 0.07927256
000380 a7 95 df bc 53 61 8d bd 55 65 e7 bc 83 6a 8c 3d
       -0.02729304 -0.06903329 -0.028246561 0.06856253
000390 01 ff 75 3d d9 1e d8 bd 86 e6 33 3d 04 29 bb 3b
       0.060057644 -0.10552759 0.043921016 0.0057116766
0003a0 96 ed 70 bd 31 14 81 bd 96 c2 97 bb c0 22 2e bd
       -0.05882033 -0.06302679 -0.0046313507 -0.04251361
0003b0 3d a6 5e bd 23 3e 62 3d be 49 23 bd 3e 6d cc 3d
       -0.054357756 0.05523504 -0.039865248 0.09981774
0003c0 af 80 bd bc 31 1e 92 bc 33 15 51 bd 23 46 74 bd
       -0.02313265 -0.017836662 -0.051045608 -0.0596372
0003d0 7c 3e ac bc d4 67 32 3d d1 f6 58 3d 37 1e 6c bb
       -0.021025889 0.04355605 0.052969757 -0.0036028752
0003e0 21 c4 4c bd ee 8b 4a 3d 15 e6 bc bb 67 79 48 bd
       -0.04999173 0.049449854 -0.0057647326 -0.048943903
0003f0 e8 f1 7c bd ad 3b a6 3d 2d ae 8d 3d 30 d8 dc bc
       -0.061754137 0.08116851 0.06917987 -0.026958555

fc3.bias f4 [100]
000000 af 18 12 bd 24 d8 b7 3c 17 ac 54 3d 99 d9 8f bc
       -0.03566807 0.022441931 0.05192193 -0.017559813
000010 e5 ab e4 bd 35 52 ab bd e6 42 c5 bd 90 62 ac 3d
       -0.11165599 -0.08365289 -0.096319005 0.08417237
000020 ff 26 fa bc f2 a7 3a 3d 09 2a 20 bd 5f 96 3d bd
       -0.030536173 0.04557032 -0.039102588 -0.046285983
000030 22 0b c4 bc fa fe 39 bd 66 0f 1c be 28 71 49 3d
       -0.02393109 -0.04540918 -0.15240249 0.04918018
000040 5c 59 ab 3d 2c b4 55 bd c4 05 9d 3c 82 bc 2a bd
       0.08366653 -0.05217378 0.019167788 -0.04168368
000050 f1 fd 4c bd 7e 8c 07 3d 03 3d f9 bd 2c 7b 4a be
       -0.050046865 0.03309297 -0.1216984 -0.19773549
000060 a6 df 68 3d e2 3a be bd 6e 1f 2e 3d 5e dd 53 3d
       0.056853913 -0.09288575 0.042510442 0.051724784
000070 fd 8c 95 bd f7 fa c0 3d 95 13 db 3d 87 63 bd bd
       -0.07302282 0.09422868 0.10697094 -0.09247499
000080 1d 15 e9 bc d3 80 3f bc ba ef 59 bd bb d7 25 3d
       -0.02845245 -0.011688429 -0.053207137 0.04048894
000090 1c 35 0b be 42 a7 8b bd fe dc e3 3c ab af 9d bc
       -0.13594478 -0.06819011 0.027815338 -0.019248804
0000a0 1c 2c 00 bd 9f 62 f9 3c e3 8c 85 3d 73 5b 12 bb
       -0.031292066 0.030442534 0.06521013 -0.002233234
0000b0 89 a1 ca 3d 74 72 63 3d e9 1c c1 3c ed 82 43 3c
       0.09894092 0.055529073 0.023573356 0.011933071
0000c0 b3 c5 46 bb 25 06 64 bd ba de 53 3c ca 23 61 bd
       -0.003033024 -0.055669922 0.01293152 -0.05496577
0000d0 bc 3e be 3d 08 b7 8c bb d0 7e c7 3c 4b 9e f2 3c
       0.092893094 -0.00429428 0.024352461 0.029616496
0000e0 8b f3 88 bb 80 44 c3 3c 24 f3 18 bc 12 41 20 3d
       -0.004179423 0.023836374 -0.009335313 0.039124556
0000f0 80 b6 2f bd 5c 96 5d bd 1e a2 08 bc 43 01 86 3c
       -0.042898655 -0.054098472 -0.008339433 0.016358024
000100 65 30 d6 3c 43 c1 b1 bd 34 d6 20 be 0f 2b 86 bc
       0.026146123 -0.0867944 -0.15706712 -0.016377954
000110 29 31 10 bd 07 b4 90 3d 8d fe 20 bd 1a 73 00 3d
       -0.035203133 0.070655875 -0.03930526 0.03135977
000120 1b c8 da 3b c0 be f2 bc 4f 75 07 3c 81 d6 98 3b
       0.0066766865 -0.029631972 0.008267715 0.0046642427
000130 c4 2b f0 bc b2 77 5a 3d 43 4e b9 bc 02 db 45 bd
       -0.029317744 0.053336807 -0.022620326 -0.048304565
000140 df 0f 4c bc 15 3d 4e 3e cb 46 44 bd 21 b8 66 3e
       -0.012454956 0.20140488 -0.047919076 0.22531177
000150 5d 96 3c bb 20 d7 a4 3d ac bb e3 3d b3 94 eb 3d
       -0.0028776147 0.08048844 0.1111978 0.115029715
000160 1f 92 83 be 78 35 31 3d 7b f3 17 3d 19 21 d1 bc
       -0.2569742 0.043263882 0.037097435 -0.025528478
000170 9b f6 9b 3d 83 54 c5 bd f8 96 12 be 14 8d d1 3d
       0.07615396 -0.0963526 -0.14315403 0.10231987
000180 44 8c 70 3e c4 8b 93 bc df a0 8c bd d1 e6 e7 3d
       0.23491007 -0.018010981 -0.06866621 0.113233216
